…
2023-10-25 12:06:18,642 - /mnt/dataset/zengjing/EVPP/nerfServer/core/run_nerf.py[line:273] - INFO: both model grad_vars length :  52
2023-10-25 12:06:18,643 - /mnt/dataset/zengjing/EVPP/nerfServer/core/run_nerf.py[line:290] - INFO: Load checkpoints
2023-10-25 12:06:18,643 - /mnt/dataset/zengjing/EVPP/nerfServer/core/run_nerf.py[line:297] - INFO: Found ckpts[]
2023-10-25 12:06:18,643 - /mnt/dataset/zengjing/EVPP/nerfServer/core/run_nerf.py[line:339] - INFO: render_kwargs_train : {'network_query_fn': <function create_nerf.<locals>.<lambda> at 0x7fdd800c5170>, 'perturb': 1.0, 'N_importance': 128, 'network_fine': NeRF(
  (pts_linears): ModuleList(
    (0): Linear(in_features=63, out_features=256, bias=True)
    (1): Linear(in_features=256, out_features=256, bias=True)
    (2): Linear(in_features=256, out_features=256, bias=True)
    (3): Linear(in_features=256, out_features=256, bias=True)
    (4): Linear(in_features=256, out_features=256, bias=True)
    (5): Linear(in_features=319, out_features=256, bias=True)
    (6): Linear(in_features=256, out_features=256, bias=True)
    (7): Linear(in_features=256, out_features=256, bias=True)
  )
  (views_linears): ModuleList(
    (0): Linear(in_features=283, out_features=128, bias=True)
  )
  (feature_linear): Linear(in_features=256, out_features=256, bias=True)
  (alpha_linear): Linear(in_features=256, out_features=1, bias=True)
  (rgb_linear): Linear(in_features=128, out_features=3, bias=True)
  (uncertainty_linear): Linear(in_features=128, out_features=1, bias=True)
), 'N_samples': 64, 'network_fn': NeRF(
  (pts_linears): ModuleList(
    (0): Linear(in_features=63, out_features=256, bias=True)
    (1): Linear(in_features=256, out_features=256, bias=True)
    (2): Linear(in_features=256, out_features=256, bias=True)
    (3): Linear(in_features=256, out_features=256, bias=True)
    (4): Linear(in_features=256, out_features=256, bias=True)
    (5): Linear(in_features=319, out_features=256, bias=True)
    (6): Linear(in_features=256, out_features=256, bias=True)
    (7): Linear(in_features=256, out_features=256, bias=True)
  )
  (views_linears): ModuleList(
    (0): Linear(in_features=283, out_features=128, bias=True)
  )
  (feature_linear): Linear(in_features=256, out_features=256, bias=True)
  (alpha_linear): Linear(in_features=256, out_features=1, bias=True)
  (rgb_linear): Linear(in_features=128, out_features=3, bias=True)
  (uncertainty_linear): Linear(in_features=128, out_features=1, bias=True)
), 'use_viewdirs': True, 'white_bkgd': True, 'raw_noise_std': 0.0, 'device': device(type='cuda', index=1), 'ndc': False, 'lindisp': False} , render_kwargs_test : {'network_query_fn': <function create_nerf.<locals>.<lambda> at 0x7fdd800c5170>, 'perturb': False, 'N_importance': 128, 'network_fine': NeRF(
  (pts_linears): ModuleList(
    (0): Linear(in_features=63, out_features=256, bias=True)
    (1): Linear(in_features=256, out_features=256, bias=True)
    (2): Linear(in_features=256, out_features=256, bias=True)
    (3): Linear(in_features=256, out_features=256, bias=True)
    (4): Linear(in_features=256, out_features=256, bias=True)
    (5): Linear(in_features=319, out_features=256, bias=True)
    (6): Linear(in_features=256, out_features=256, bias=True)
    (7): Linear(in_features=256, out_features=256, bias=True)
  )
  (views_linears): ModuleList(
    (0): Linear(in_features=283, out_features=128, bias=True)
  )
  (feature_linear): Linear(in_features=256, out_features=256, bias=True)
  (alpha_linear): Linear(in_features=256, out_features=1, bias=True)
  (rgb_linear): Linear(in_features=128, out_features=3, bias=True)
  (uncertainty_linear): Linear(in_features=128, out_features=1, bias=True)
), 'N_samples': 64, 'network_fn': NeRF(
  (pts_linears): ModuleList(
    (0): Linear(in_features=63, out_features=256, bias=True)
    (1): Linear(in_features=256, out_features=256, bias=True)
    (2): Linear(in_features=256, out_features=256, bias=True)
    (3): Linear(in_features=256, out_features=256, bias=True)
    (4): Linear(in_features=256, out_features=256, bias=True)
    (5): Linear(in_features=319, out_features=256, bias=True)
    (6): Linear(in_features=256, out_features=256, bias=True)
    (7): Linear(in_features=256, out_features=256, bias=True)
  )
  (views_linears): ModuleList(
    (0): Linear(in_features=283, out_features=128, bias=True)
  )
  (feature_linear): Linear(in_features=256, out_features=256, bias=True)
  (alpha_linear): Linear(in_features=256, out_features=1, bias=True)
  (rgb_linear): Linear(in_features=128, out_features=3, bias=True)
  (uncertainty_linear): Linear(in_features=128, out_features=1, bias=True)
), 'use_viewdirs': True, 'white_bkgd': True, 'raw_noise_std': 0.0, 'device': device(type='cuda', index=1), 'ndc': False, 'lindisp': False} , start : 0
2023-10-25 12:06:18,644 - /mnt/dataset/zengjing/EVPP/nerfServer/core/run_nerf.py[line:340] - INFO: grad_vars lengths: 52
2023-10-25 12:06:20,554 - /mnt/dataset/zengjing/EVPP/nerfServer/core/nerf.py[line:433] - INFO: ############################## current global step is 0  ###############################
…
